models/sadp.pt (torch, 6290 bytes, 16 tensors)

enhance.in_conv.0.weight f4 [3, 3, 3, 3]
0	0x3e1334c8	0.14375603
1	0xbae86cc5	-0.0017732611
2	0xbd351d21	-0.044217233
3	0xbc27a7e7	-0.010232902
4	0x3d02f881	0.031975273
5	0x3d7e46a7	0.062079098
6	0x3ac42eb0	0.0014967527
7	0xbce60974	-0.02808068
8	0xbd14b862	-0.036308654
9	0x3e062c06	0.13102731
10	0xbc745fc5	-0.014915411
11	0x3c107be8	0.008818604
12	0x3c93e1a9	0.01805194
13	0x3cb36a2c	0.021901213
14	0xbdb56504	-0.08857158
15	0xbbeeaa86	-0.0072835116
16	0xbc2689ce	-0.010164691
17	0x3cfbbed6	0.030730646
18	0xbe18d613	-0.14925413
19	0x3db4e5e3	0.0883291
20	0x3c83035c	0.015992813
21	0x3d8aca0e	0.0677682
22	0x3e151a1f	0.14560746
23	0x3d37e939	0.044900153
24	0xbc94b4d8	-0.01815264
25	0xbcd75434	-0.026285268
26	0xbc60b09f	-0.013713985
27	0xbd3f1ad5	-0.04665645
28	0x3d8b6800	0.06806946
29	0x3d000456	0.031254135
30	0xbbbc51e1	-0.0057470654
31	0xbd16f752	-0.036856957
32	0xbe13960b	-0.14412706
33	0x3c0f5eed	0.008750659
34	0xbc406352	-0.01174243
35	0xbd91e2bd	-0.07123325
36	0xbd236689	-0.039892707
37	0x3da8cf70	0.082426906
38	0xbaf2ed3b	-0.0018533835
39	0xbd0a5d47	-0.033780362
40	0x3dfb098f	0.122576825
41	0x3da8fc50	0.0825125
42	0x3c3db9b4	0.01157992
43	0xbd12c517	-0.03583249
44	0x3d84a25e	0.064762816
45	0x3d50b827	0.05095687
46	0xbdd65b0d	-0.10466585
47	0x3d18c852	0.037300415
48	0xbc461568	-0.012090065
49	0x3d8b3071	0.06796349
50	0xbcb55b32	-0.022138212
51	0xbb26f803	-0.0025477416
52	0xbc83d1d5	-0.016091267
53	0xbc86303d	-0.016380424
54	0x3d1a0af1	0.03760809
55	0x3d2c5209	0.042070422
56	0x3b4ea7ca	0.0031533116
57	0xbdead1f8	-0.114658296
58	0xbdfc64a3	-0.123238824
59	0xbd145c74	-0.036220983
60	0xbd476390	-0.048678935
61	0xbde58408	-0.112068236
62	0x3e066fe2	0.13128617
63	0x3d21a403	0.039463054
64	0x3d18e917	0.037331667
65	0x3a5df912	0.00084675953
66	0xbd91638c	-0.07099065
67	0xbc8090a2	-0.015693966
68	0xba3beda7	-0.0007168897
69	0xbd71f9ed	-0.05907624
70	0x3e23ba51	0.15989043
71	0xbdda3198	-0.106539905
72	0xbd1c01fb	-0.038087826
73	0xbc5ffab0	-0.013670608
74	0x3cb5de7d	0.022200817
75	0x3e1caff8	0.15301502
76	0x3db15ba0	0.08660054
77	0xbc26af2d	-0.010173601
78	0x3c40649c	0.011742737
79	0xbd1aee12	-0.037824698
80	0x3d3710e5	0.044693846

enhance.in_conv.0.bias f4 [3]
0	0x3d514a17	0.05109605
1	0x3d308c13	0.043102335
2	0x3cf0898a	0.029362459

enhance.conv.0.weight f4 [3, 3, 3, 3]
0	0xbc2031bc	-0.009777483
1	0xbbf9ac84	-0.0076194424
2	0xbb35155e	-0.0027631144
3	0x3b5a1742	0.0033278023
4	0x3d9d4bbc	0.07680461
5	0x3d750d1e	0.059826963
6	0x3ca265ef	0.019823996
7	0xbcc67314	-0.024224795
8	0x3db0b20c	0.0862771
9	0xbb981a17	-0.004641782
10	0xbc293e16	-0.010329744
11	0xbbe17a7d	-0.006881057
12	0x3d91ffb0	0.07128847
13	0xbc0e528b	-0.008686672
14	0x3c5693b0	0.013096735
15	0xbbc69e49	-0.0060613495
16	0xbd863eca	-0.06554945
17	0xbd343b1f	-0.044001695
18	0x3c6511d3	0.0139813
19	0x3ad60dd5	0.0016331027
20	0x3c642a17	0.013926051
21	0x3d93fcff	0.072259896
22	0xbe5d77d3	-0.2162774
23	0xbdf48675	-0.11939708
24	0x3d022009	0.031768832
25	0xbd31f2eb	-0.043444555
26	0xbc8caaa4	-0.017171212
27	0x3b8f8be0	0.004380688
28	0x3c5a0eed	0.013309223
29	0x3c2c3d6a	0.010512689
30	0xbca4ba19	-0.02010827
31	0xbce7cb23	-0.028295105
32	0xbcc87eda	-0.02447455
33	0x3d55f714	0.052237585
34	0x3e305849	0.17221178
35	0xbdb155ea	-0.08658965
36	0x3c451f4e	0.012031389
37	0x3d011bb4	0.03152056
38	0x3c91b072	0.017784331
39	0x3cd56fd5	0.026054302
40	0x3da7bdc1	0.081904896
41	0xbd11f476	-0.035633527
42	0xbb21b4e9	-0.0024674481
43	0x3dab7258	0.08371419
44	0xbc0c4bb6	-0.008562973
45	0xbc2bd6af	-0.010488196
46	0xbcf46081	-0.029831173
47	0xbd3e6a63	-0.046488177
48	0x3d97971e	0.0740187
49	0xbde6d0a3	-0.11270263
50	0x3cd6dfac	0.026229702
51	0x3d118f00	0.035536766
52	0x3ca75143	0.02042449
53	0x3c880ec8	0.01660861
54	0xbca06d5b	-0.019583395
55	0xbc3fe3d0	-0.01171203
56	0xbc1623b8	-0.009163789
57	0x3b1cbe17	0.0023917013
58	0x3d85bde6	0.06530361
59	0x3c0449c5	0.008074229
60	0x3cf09284	0.02936674
61	0x3e1d606c	0.15368813
62	0xbcdd6479	-0.027025448
63	0xbbe1357b	-0.0068728304
64	0xbcd219b0	-0.025647014
65	0xbc63d7e5	-0.013906454
66	0xbcc7ec25	-0.024404595
67	0xbe2dc18f	-0.16968368
68	0x3ce29976	0.027661067
69	0x3cdfaf8c	0.027305387
70	0x3ddd8f43	0.10818341
71	0x3b4ad9e4	0.0030952627
72	0x3cd30603	0.025759703
73	0x3b8118d2	0.0039397264
74	0x3d231b1e	0.039820783
75	0x3d3f55e0	0.046712756
76	0xbd75190f	-0.05983835
77	0xbb9fa341	-0.0048717563
78	0x3cf5f5e4	0.030024476
79	0x3d48194f	0.04885226
80	0x3c8a9601	0.01691723

enhance.conv.0.bias f4 [3]
0	0x3b0d766d	0.002158548
1	0x3c9d1345	0.019174227
2	0x3ba40c11	0.0050063212

enhance.conv.1.weight f4 [3]
0	0x3f4bac80	0.7956009
1	0x3f691bda	0.91058123
2	0x3f57d238	0.84305143

enhance.conv.1.bias f4 [3]
0	0x3e81ab22	0.25325876
1	0x3e734fae	0.23760864
2	0x3e5a29b8	0.21304977

enhance.conv.1.running_mean f4 [3]
0	0xbb50c3b0	-0.003185492
1	0x3ced62e7	0.028977824
2	0x3c4c25b3	0.01246016

enhance.conv.1.running_var f4 [3]
0	0x35e70bdf	1.7214296e-06
1	0x363af89d	2.7860872e-06
2	0x36368943	2.720001e-06

enhance.blocks.0.0.weight f4 [3, 3, 3, 3]
0	0xbc2031bc	-0.009777483
1	0xbbf9ac84	-0.0076194424
2	0xbb35155e	-0.0027631144
3	0x3b5a1742	0.0033278023
4	0x3d9d4bbc	0.07680461
5	0x3d750d1e	0.059826963
6	0x3ca265ef	0.019823996
7	0xbcc67314	-0.024224795
8	0x3db0b20c	0.0862771
9	0xbb981a17	-0.004641782
10	0xbc293e16	-0.010329744
11	0xbbe17a7d	-0.006881057
12	0x3d91ffb0	0.07128847
13	0xbc0e528b	-0.008686672
14	0x3c5693b0	0.013096735
15	0xbbc69e49	-0.0060613495
16	0xbd863eca	-0.06554945
17	0xbd343b1f	-0.044001695
18	0x3c6511d3	0.0139813
19	0x3ad60dd5	0.0016331027
20	0x3c642a17	0.013926051
21	0x3d93fcff	0.072259896
22	0xbe5d77d3	-0.2162774
23	0xbdf48675	-0.11939708
24	0x3d022009	0.031768832
25	0xbd31f2eb	-0.043444555
26	0xbc8caaa4	-0.017171212
27	0x3b8f8be0	0.004380688
28	0x3c5a0eed	0.013309223
29	0x3c2c3d6a	0.010512689
30	0xbca4ba19	-0.02010827
31	0xbce7cb23	-0.028295105
32	0xbcc87eda	-0.02447455
33	0x3d55f714	0.052237585
34	0x3e305849	0.17221178
35	0xbdb155ea	-0.08658965
36	0x3c451f4e	0.012031389
37	0x3d011bb4	0.03152056
38	0x3c91b072	0.017784331
39	0x3cd56fd5	0.026054302
40	0x3da7bdc1	0.081904896
41	0xbd11f476	-0.035633527
42	0xbb21b4e9	-0.0024674481
43	0x3dab7258	0.08371419
44	0xbc0c4bb6	-0.008562973
45	0xbc2bd6af	-0.010488196
46	0xbcf46081	-0.029831173
47	0xbd3e6a63	-0.046488177
48	0x3d97971e	0.0740187
49	0xbde6d0a3	-0.11270263
50	0x3cd6dfac	0.026229702
51	0x3d118f00	0.035536766
52	0x3ca75143	0.02042449
53	0x3c880ec8	0.01660861
54	0xbca06d5b	-0.019583395
55	0xbc3fe3d0	-0.01171203
56	0xbc1623b8	-0.009163789
57	0x3b1cbe17	0.0023917013
58	0x3d85bde6	0.06530361
59	0x3c0449c5	0.008074229
60	0x3cf09284	0.02936674
61	0x3e1d606c	0.15368813
62	0xbcdd6479	-0.027025448
63	0xbbe1357b	-0.0068728304
64	0xbcd219b0	-0.025647014
65	0xbc63d7e5	-0.013906454
66	0xbcc7ec25	-0.024404595
67	0xbe2dc18f	-0.16968368
68	0x3ce29976	0.027661067
69	0x3cdfaf8c	0.027305387
70	0x3ddd8f43	0.10818341
71	0x3b4ad9e4	0.0030952627
72	0x3cd30603	0.025759703
73	0x3b8118d2	0.0039397264
74	0x3d231b1e	0.039820783
75	0x3d3f55e0	0.046712756
76	0xbd75190f	-0.05983835
77	0xbb9fa341	-0.0048717563
78	0x3cf5f5e4	0.030024476
79	0x3d48194f	0.04885226
80	0x3c8a9601	0.01691723

enhance.blocks.0.0.bias f4 [3]
0	0x3b0d766d	0.002158548
1	0x3c9d1345	0.019174227
2	0x3ba40c11	0.0050063212

enhance.blocks.0.1.weight f4 [3]
0	0x3f4bac80	0.7956009
1	0x3f691bda	0.91058123
2	0x3f57d238	0.84305143

enhance.blocks.0.1.bias f4 [3]
0	0x3e81ab22	0.25325876
1	0x3e734fae	0.23760864
2	0x3e5a29b8	0.21304977

enhance.blocks.0.1.running_mean f4 [3]
0	0xbb50c3b0	-0.003185492
1	0x3ced62e7	0.028977824
2	0x3c4c25b3	0.01246016

enhance.blocks.0.1.running_var f4 [3]
0	0x35e70bdf	1.7214296e-06
1	0x363af89d	2.7860872e-06
2	0x36368943	2.720001e-06

enhance.out_conv.0.weight f4 [3, 3, 3, 3]
0	0xbad0c447	-0.0015927636
1	0xbd5ef86e	-0.05443614
2	0xbc7a214d	-0.015266729
3	0xbd8d1f2c	-0.06890711
4	0xbd5a9b04	-0.05337049
5	0xbd83bd70	-0.06432617
6	0x3c0d14df	0.008610933
7	0x3d26f2aa	0.040758766
8	0xbcede228	-0.029038504
9	0x3dbe977b	0.09306236
10	0xbe069f4c	-0.13146704
11	0x3cced2f7	0.02524708
12	0x3e06b06c	0.13153237
13	0x3d5a4bcc	0.05329494
14	0xbda63f57	-0.0811755
15	0x3c0d69f5	0.008631219
16	0xbda0f6ca	-0.07859571
17	0x3c96079b	0.018314173
18	0x3cc1e231	0.023667427
19	0xbd1e0308	-0.03857711
20	0x3ccb130f	0.024789361
21	0xbe332612	-0.17494991
22	0x3d1faa15	0.038980562
23	0x3b94e342	0.004543693
24	0xbc0bb475	-0.008526911
25	0x3dc6f270	0.0971421
26	0xbd533836	-0.05156728
27	0xbbbf6c64	-0.0058417786
28	0x3e7fe5ca	0.24990001
29	0xbd14f666	-0.036367796
30	0xbd83abc8	-0.06429249
31	0xbe06d5bc	-0.1316747
32	0xbdf518ef	-0.11967646
33	0x3c80cfc7	0.015724076
34	0x3c920ed6	0.01782934
35	0xbcfdeee4	-0.030997701
36	0x3b0ee3fc	0.002180337
37	0xbd591d90	-0.05300671
38	0xbca64491	-0.020296367
39	0x3c711806	0.0147152
40	0xbe316f61	-0.17327644
41	0xbdc29333	-0.09500732
42	0xbcb06219	-0.021531152
43	0xbd418091	-0.04724175
44	0x3cb31b75	0.021863678
45	0x3d3b115a	0.045670845
46	0xbe28aaea	-0.16471449
47	0xbd2ba26e	-0.041902952
48	0x3c8eb831	0.017421814
49	0x3e1f6957	0.15567528
50	0xbcef7fe3	-0.029235786
51	0x3ce65300	0.02811575
52	0x3d359fa5	0.044341702
53	0xbd4f925d	-0.050676692
54	0x3c918c85	0.0177672
55	0x3e2c5e70	0.168329
56	0xbc6b03d4	-0.014344174
57	0xbdbee468	-0.09320909
58	0x3db71594	0.089396626
59	0xbddb6710	-0.10713017
60	0xbc240dca	-0.010013053
61	0xbceaf0aa	-0.02867921
62	0x3c5474d9	0.012967312
63	0x3d8811e6	0.06644039
64	0xbe0d0581	-0.13771631
65	0xbda1c2f1	-0.0789851
66	0x3e02d916	0.12778124
67	0xbd161320	-0.036639333
68	0x3b37bc7d	0.0028035932
69	0x3c74a844	0.014932696
70	0x3d48e666	0.04904785
71	0xbbfee06c	-0.007778218
72	0x3d1d735e	0.0384401
73	0xbe2c7ab9	-0.1684369
74	0xbd97aa51	-0.07405532
75	0xbdd76b87	-0.10518556
76	0xbd088542	-0.03333021
77	0x3c87bdf7	0.016570074
78	0xbc5bfdcc	-0.013427209
79	0xbd97e144	-0.07416013
80	0x3ce9b7d8	0.028530046

enhance.out_conv.0.bias f4 [3]
0	0xbf2cbbb1	-0.67473894
1	0xbf155407	-0.5833134
2	0xbf4a1949	-0.7894483
